netG_newGAN_sep10.pth (torch_old, 229718 bytes, 11 tensors)

main.0.weight f4 [1, 160, 5, 5]
0.023309559 0.06389402 0.036121413 0.009422835 0.034891058 -0.014537222 0.025449244 -0.05139511
-0.02882256 0.0070524695 0.015219974 0.025839701 -0.03817794 -0.04618904 -0.0546327 0.011866212
-0.008981484 -0.001381131 -0.022499165 0.03368972 0.014726651 0.052523814 -0.009913662 0.0025166539
-0.028810546 -0.038138706 -0.04041244 0.054764137 0.0018290656 0.027552199 -0.007378137 -0.0046148705
-0.03162078 -0.009457855 -0.011858128 -0.01881879 0.006543678 -0.022850364 0.025742853 -0.022726234
0.015587795 -0.0042236955 0.014672976 0.011125385 0.023675673 0.01714694 0.05171738 0.012027243
-0.044451285 -0.006228369 0.08672344 -0.032511234 0.012552861 0.02557494 0.008379793 -0.017856771
0.018825188 0.007407095 -0.046372462 0.05239118 0.029689535 0.026710065 -0.016131733 -0.02891748
0.0072206683 -0.026594887 0.0025927976 -0.019450925 0.0064485837 0.013884946 0.045245327 -0.007208691
0.029749574 0.0034132735 0.043247655 -0.011776474 -0.005741363 -0.002282335 0.027326409 0.012166131
-0.06893791 0.032449182 -0.023788577 -0.05522581 -0.00029870417 0.021466797 0.0016347301 0.0035102398
-0.017780334 -0.02957663 0.0048180283 0.0131479055 0.041735157 0.004776888 0.037235275 -0.0089335395
-0.0050544166 0.011109696 -0.0035760948 -0.001063164 0.008118848 0.004807293 -0.007947922 0.08570921
-0.032877788 0.010800519 -0.0020080814 0.03885784 -0.01017739 0.008910179 0.021201957 0.010236921
-0.004561203 0.046410937 -0.0008909969 -0.013470764 -0.012346277 -0.024917675 -0.06342913 0.003874903
0.004309393 0.046626657 -0.012138259 0.038711704 -0.056118533 0.030887209 -0.009880979 0.06311339
0.035501227 0.065215126 -0.008614043 0.036340863 0.020158673 0.01375578 -0.04082785 0.043612838
-0.036287192 -0.014754938 -0.0021487495 0.02632801 -0.017330237 -0.0011608258 0.011371474 -0.039887298
0.01508076 0.018647447 -0.017097533 0.022104347 0.0043399488 0.04960291 0.025468713 0.028994532
-0.020617032 -0.00063913397 0.036551148 -0.018977808 0.0031758775 0.0077035497 -0.0005473366 0.012249799
-0.037105292 -0.01904393 -0.0913182 0.010169974 0.0004630095 -0.0092786215 -0.0087499255 -0.04329944
0.018307462 0.020018294 0.039446905 -0.02792561 -0.00051719864 -0.015486775 0.032485064 0.019722985
-0.020770453 0.056608934 0.038704522 0.035492916 -0.047488537 0.0015693951 -0.00916217 -0.007472761
0.01209033 0.013556892 0.03821363 -0.016854066 -0.040689882 -0.008718848 -0.016994387 -0.0083318865
-0.009545724 -0.0046149697 0.044521105 0.03152023 -0.0090029985 0.032142244 -0.035575494 0.031492908
-0.018688561 0.028450927 0.029333206 0.068468206 -0.007881498 0.013465132 0.012614155 -0.018215872
-0.015059904 -0.010993041 -0.0038961081 0.032755792 0.0041671414 -0.014489495 0.004451522 -0.0207966
-0.029952524 0.006371051 0.013050715 0.02518238 -0.031147273 0.03671379 0.011009076 0.066315055
-0.011210077 -0.018427804 -0.029988209 -0.0013051826 -0.0002709696 -0.0054545105 -0.010449672 -0.048838865
0.019258816 -0.0023403075 -0.043348316 -0.07005929 -0.015249272 0.04035816 -0.011315494 0.047020495
0.0050035235 0.013595848 0.013706255 0.030005718 -0.011946859 0.0058223302 0.021986466 0.06539064
0.017175604 0.09322676 0.021223899 0.0044045458 0.019263472 -0.0013320827 -0.016411213 0.024331128
00000000: b0f3 be3c deda 823d 0cf4 133d 3c62 1a3c
00000010: ede9 0e3d 872d 6ebc ef7a d03c ae83 52bd
00000020: 4a1d ecbc 6718 e73b 335d 793c c8ad d33c
00000030: 7960 1cbd b830 3dbd 8ac6 5fbd 806a 423c
00000040: 1327 13bc 1107 b5ba 2b50 b8bc 3bfe 093d
00000050: 0d48 713c 3623 573d ea6c 22bc 72ee 243b
00000060: 1804 ecbc 5537 1cbd 8487 25bd 5c50 603d
00000070: 42bd ef3a 26b5 e13c 4dc4 f1bb 5738 97bb
00000080: ca84 01bd 1ef5 1abc 9848 42bc dd29 9abc
00000090: 5a6c d63b b030 bbbc ade2 d23c 5e2c babc
000000a0: f363 7f3c ed66 8abb ec66 703c 3f47 363c
000000b0: 7cf3 c13c bd77 8c3c 9ad5 533d ea0d 453c
000000c0: 8d12 36bd 5917 ccbb 0f9c b13d 802a 05bd
000000d0: 84aa 4d3c 8982 d13c 664b 093c 5d48 92bc
000000e0: 4837 9a3c 37b7 f23b 0df1 3dbd 2298 563d
000000f0: 7837 f33c 11cf da3c b226 84bc 5ae4 ecbc
00000100: 5b9b ec3b 85dd d9bc edeb 293b 8c57 9fbc
00000110: a44e d33b af7d 633c 2a53 393d e236 ecbb
00000120: 61b5 f33c 3ab1 5f3b 7424 313d 1df2 40bc
00000130: 0b22 bcbb 3a93 15bb a2db df3c 7454 473c
00000140: 522f 8dbd 6fe9 043d 43e0 c2bc 7534 62bd
00000150: 659b 9cb9 23db af3c 7144 d63a 0d0c 663b
00000160: 10a8 91bc b04a f2bc 8de0 9d3b 506a 573c
00000170: 7cf2 2a3d 7187 9c3b 0484 183d fb5d 12bc
00000180: 859f a5bb 7105 363c ea5c 6abb dd59 8bba
00000190: eb04 053c 7f86 9d3b 0038 02bc 4f88 af3d
000001a0: dcaa 06bd a9f4 303c 049a 03bb 6629 1f3d
000001b0: 11bf 26bc 00fc 113c baaf ad3c c2b8 273c
000001c0: 2576 95bb 6519 3e3d ca91 69ba 7bb4 5cbc
000001d0: 0a48 4abc 2720 ccbc 22e7 81bd 16f2 7d3b
000001e0: cf35 8d3b 98fb 3e3d 8cdf 46bc 2a90 1e3d
000001f0: 8cdc 65bd 2c07 fd3c d4e3 21bc 9841 813d
00000200: bc69 113d 828f 853d ea21 0dbc 28da 143d
00000210: cd23 a53c ec5f 613c 1b3b 27bd 60a3 323d
00000220: e1a1 14bd b2be 71bc 09d2 0cbb d7ad d73c
00000230: 24f8 8dbc da26 98ba 6b4f 3a3c dd60 23bd
00000240: 4b15 773c 88c2 983c 2010 8cbc 2d14 b53c
00000250: 2136 8e3b 6c2c 4b3d c3a3 d03c f185 ed3c
00000260: 0de5 a8bc 8e8b 27ba a8b6 153d 5977 9bbc
00000270: 6222 503b 0f6e fc3b 237b 0fba 62b3 483c
00000280: b8fb 17bd 0402 9cbc 0905 bbbd f69f 263c
00000290: 15c0 f239 5c05 18bc d95b 0fbc c15a 31bd
000002a0: 88f9 953c 68fd a33c 1493 213d 40c4 e4bc
000002b0: 9d94 07ba 3ebc 7dbc 0f0f 053d 1992 a13c
000002c0: cc26 aabc c5de 673d a288 1e3d 0561 113d
000002d0: 5783 42bd 29b4 cd3a ed1c 16bc 10de f4bb
000002e0: 8516 463c ba1d 5e3c e585 1c3d 8a11 8abc
000002f0: 6faa 26bd 80d9 0ebc d037 8bbc 7782 08bc
00000300: ab65 1cbc 2c39 97bb c35b 363d 5b1b 013d
00000310: 5081 13bc 96a7 033d 9cb7 11bd b5fe 003d
00000320: c118 99bc eb11 e93c 314c f03c 0f39 8c3d
00000330: 6621 01bc db9c 5c3c 9aab 4e3c 7439 95bc
00000340: d1bd 76bc 281c 34bc d955 7fbb f02a 063d
00000350: 848c 883b 5965 6dbc 13de 913b a25d aabc
00000360: ff5e f5bc 40c4 d03b abd2 553c 474b ce3c
00000370: 9128 ffbc 3361 163d 695f 343c 30d0 873d
00000380: 79aa 37bc e8f5 96bc d5a9 f5bc a912 abba
00000390: ed10 8eb9 c0bb b2bb 1a35 2bbc 430b 48bd
000003a0: aac4 9d3c d85f 19bb 018e 31bd 3f7b 8fbd
000003b0: 15d8 79bc 994e 253d 9f64 39bc 9098 403d
000003c0: 99f4 a33b 1fc1 5e3c 3390 603c 8dce f53c
000003d0: c2bc 43bc 3fc9 be3b f61c b43c 87eb 853d
000003e0: dab3 8c3c aced be3d bedd ad3c 0254 903b
000003f0: 6ece 9d3c 4799 aeba cf70 86bc 1352 c73c

main.1.weight f4 [160]
0.96584177 1.1569263 0.92317104 1.0830687 0.95763916 0.96949506 0.972654 0.99033827
0.8972018 0.9423573 0.95219237 0.9584728 0.9493316 0.9765446 1.0802238 0.95717484
0.9732174 1.0366623 0.9858993 1.0074499 1.146011 1.0614866 1.0264366 0.9474883
0.9894581 0.9507162 0.9908504 0.9802554 0.95635796 0.9931558 0.97707194 0.9954792
0.98612964 0.9758617 0.9330475 0.937912 0.9838448 1.0306398 0.9743234 0.96780604
1.0382588 0.99659103 0.9750323 0.96605396 0.95746523 0.9458021 0.9250306 0.99503714
1.0122515 1.0473244 0.98054904 0.9812304 0.94585747 1.2146357 1.1661987 0.9760869
0.96056974 0.96340925 0.94438845 0.975625 1.0508136 0.91200775 0.97504026 0.91632265
1.0006738 0.9651048 0.9700103 1.0640315 0.96349025 1.0112494 1.0658747 0.9451582
0.9658387 1.0469351 0.9515763 0.96543515 0.978219 0.97748566 0.9304289 0.98995
0.9582397 1.0305618 0.96449983 1.0021954 0.94102263 0.9658254 0.94540834 0.9435072
1.0266749 1.1121861 1.0089935 0.9799635 0.9544622 0.9387072 0.9720198 0.9416709
0.93086046 1.11216 0.953452 0.9517403 0.9576399 0.94972265 0.9552271 1.032573
0.91847885 1.0018353 0.93663865 0.9660381 1.0116686 0.92661583 0.96920156 0.98246026
0.9705785 1.0187634 0.92868215 0.9729376 0.97144914 1.0162961 0.9653933 0.9662052
1.0618757 0.9648229 1.1890223 0.94714034 1.0072701 1.0881256 0.98239845 0.98938143
0.9710407 0.9968301 0.9788516 1.0615697 1.0346253 0.97410643 0.93688613 1.0592089
1.0078534 0.9579513 0.99635184 1.0939516 0.9866132 0.9673957 1.0692203 1.0088303
0.9747055 0.95334536 1.1417792 0.9852994 0.9444367 0.96289814 0.95107263 0.93511397
0.9391118 1.2355027 1.1607143 0.99371034 0.95100355 0.95912075 0.98615843 0.96694916
00000000: 6841 773f 2916 943f f054 6c3f ffa1 8a3f
00000010: d727 753f d430 783f daff 783f cf86 7d3f
00000020: 04af 653f 543e 713f e1c2 733f 795e 753f
00000030: 6507 733f d4fe 793f c644 8a3f 6909 753f
00000040: c724 793f 5ab1 843f e663 7c3f 1ef4 803f
00000050: 7db0 923f cbde 873f 4662 833f 988e 723f
00000060: 204d 7d3f 2362 733f 5fa8 7d3f 05f2 7a3f
00000070: e0d3 743f 753f 7e3f 6321 7a3f bad7 7e3f
00000080: fe72 7c3f 13d2 793f 33dc 6e3f 001b 703f
00000090: 41dd 7b3f 01ec 833f 426d 793f 23c2 773f
000000a0: aae5 843f 9720 7f3f b89b 793f 504f 773f
000000b0: 711c 753f 1620 723f cece 6c3f c1ba 7e3f
000000c0: 7591 813f ba0e 863f 4305 7b3f ea31 7b3f
000000d0: b723 723f 2f79 9b3f 0046 953f d5e0 793f
000000e0: e6e7 753f fda1 763f 71c3 713f 8fc2 793f
000000f0: 0f81 863f 5779 693f 3d9c 793f 1f94 6a3f
00000100: 1416 803f 1c11 773f 9852 783f 2f32 883f
00000110: 4ca7 763f 9f70 813f 956e 883f e3f5 713f
00000120: 3441 773f f801 863f 819a 733f c226 773f
00000130: 8f6c 7a3f 803c 7a3f 9730 6e3f 5d6d 7d3f
00000140: 324f 753f 73e9 833f 76e9 763f f047 803f
00000150: dce6 703f 5540 773f 4806 723f b089 713f
00000160: 156a 833f 1d5c 8e3f b326 813f e3de 7a3f
00000170: a257 743f 1d4f 703f 4ad6 783f 5811 713f
00000180: df4c 6e3f 425b 8e3f 6e15 743f 41a5 733f
00000190: e327 753f 0621 733f c389 743f 5a2b 843f
000001a0: 6e21 6b3f 243c 803f 8dc7 6f3f 464e 773f
000001b0: 5b7e 813f b236 6d3f 981d 783f 8482 7b3f
000001c0: d577 783f d766 823f 1dbe 6d3f 7012 793f
000001d0: e4b0 783f fe15 823f 0424 773f 3959 773f
000001e0: 8beb 873f a2fe 763f e231 983f ca77 723f
000001f0: 3aee 803f b347 8b3f 777e 7b3f 1a48 7d3f
00000200: 2096 783f 4230 7f3f 0596 7a3f 84e1 873f
00000210: 9a6e 843f 0a5f 793f c5d7 6f3f 2894 873f
00000220: 5701 813f 4c3c 753f ea10 7f3f 9b06 8c3f
00000230: af92 7c3f 3fa7 773f 36dc 883f 5a21 813f
00000240: 4d86 793f 710e 743f d225 923f 953c 7c3f
00000250: 9bc6 713f 7e80 763f 7f79 733f a163 6f3f
00000260: a269 703f f424 9e3f 4992 943f cd63 7e3f
00000270: f874 733f f088 753f e174 7c3f fb89 773f

main.1.bias f4 [160]
-0.050357893 -0.065824375 -0.053756833 -0.0014027088 -0.05296668 0.00017058667 -0.04063397 -0.039450265
-0.0439092 -0.06255592 -0.063061364 -0.041980896 -0.045923896 -0.051449724 -0.0150133185 -0.14016412
-0.045227945 -0.06219847 -0.03408282 -0.09214333 -0.06987309 -0.019121295 -0.011012531 -0.0408031
-0.06159012 -0.06199426 -0.023114782 -0.028080849 -0.010003765 -0.04547523 -0.030672546 -0.016282208
-0.066113934 -0.06664363 -0.01261948 -0.0370474 -0.054010835 -0.040215652 -0.06987461 -0.06367879
-0.021031028 -0.02848698 -0.04331201 -0.049259227 -0.07000694 -0.030148713 -0.095547125 -0.03582212
-0.06319326 -0.047923993 -0.05226082 -0.047828708 -0.06451397 0.08735357 -0.067158826 -0.051998273
-0.07017052 -0.057934683 -0.037939306 -0.03338573 -0.03223934 -0.023689378 -0.04020397 -0.07575004
-0.031199947 -0.048105296 -0.034360614 -0.003029449 -0.026022732 -0.05967838 -0.032413755 -0.014284114
-0.05148074 -0.032556117 -0.058846083 -0.028462663 0.030157536 -0.062262297 -0.009721102 -0.06641711
-0.0016369009 -0.035717856 -0.06689818 -0.05360587 -0.025977243 -0.017981492 -0.07857944 -0.04919699
-0.050717387 -0.086359575 0.008267352 -0.016741883 -0.03214022 -0.02701454 -0.03255882 -0.05611809
-0.029119723 -0.061558943 -0.04420938 -0.061188668 -0.03310476 -0.035963144 -0.044918526 -0.080961615
-0.036518652 -0.05147421 -0.059213623 -0.09188353 -0.08949076 -0.05098172 -0.03631417 -0.04639676
-0.06991656 -0.10219239 -0.097532794 -0.059557263 -0.060105816 -0.050112344 -0.06221945 0.0036905361
-0.07395623 -0.04949833 0.001432129 -0.030382805 0.02674263 -0.09008133 -0.044726595 -0.02902116
-0.032111406 -0.060439996 -0.035649467 -0.02711512 0.042039465 -0.03329412 -0.06308574 -0.013762325
-0.057112616 -0.045096062 -0.07785536 -0.02428738 -0.021574544 -0.026090194 -0.053879105 -0.06098729
-0.05264359 -0.07289891 -0.06286051 -0.037429623 -0.063030586 -0.052721243 -0.10177171 -0.12502953
-0.030180672 -0.073484965 -0.041469317 -0.006263216 -0.057295945 0.020664535 -0.06768715 -0.042192604
00000000: 1444 4ebd eece 86bd 2030 5cbd 19db b7ba
00000010: 97f3 58bd 83df 3239 ce6f 26bd 9a96 21bd
00000020: 22da 33bd 511d 80bd 5126 81bd 29f4 2bbd
00000030: b21a 3cbd f2bc 52bd 6cfa 75bc 2f87 0fbe
00000040: f040 39bd d3c3 7ebd 6d9a 0bbd a4b5 bcbd
00000050: 9f19 8fbd 43a4 9cbc e76d 34bc 2721 27bd
00000060: ec45 7cbd b1ed 7dbd 365b bdbc cf09 e6bc
00000070: d5e6 23bc 3c44 3abd fe44 fbbc 4462 85bc
00000080: be66 87bd 757c 88bd efc1 4ebc 04bf 17bd
00000090: 773a 5dbd 2bb9 24bd 6b1a 8fbd 076a 82bd
000000a0: 4349 acbc 875d e9bc ef67 31bd 0bc4 49bd
000000b0: cc5f 8fbd 6ffa f6bc 36ae c3bd 37ba 12bd
000000c0: 786b 81bd f34b 44bd 710f 56bd 09e8 43bd
000000d0: e61f 84bd 6ee6 b23d 918a 89bd 24fc 54bd
000000e0: 90b5 8fbd eb4c 6dbd 3f66 1bbd 7abf 08bd
000000f0: 660d 04bd 3a10 c2bc ebac 24bd d622 9bbd
00000100: 0897 ffbc 0f0a 45bd b7bd 0cbd b889 46bb
00000110: a02d d5bc 5171 74bd 49c4 04bd eb07 6abc
00000120: 78dd 52bd 9059 05bd 9708 71bd 882a e9bc
00000130: f00c f73c c006 7fbd 4245 1fbc b205 88bd
00000140: 488d d6ba e34c 12bd ea01 89bd d491 5bbd
00000150: 3ace d4bc ec4d 93bc 42ee a0bd c882 49bd
00000160: 09bd 4fbd 4add b0bd ca73 073c 4626 89bc
00000170: 77a5 03bd 994d ddbc 665c 05bd 15dc 65bd
00000180: 7c8c eebc 3b25 7cbd e514 35bd f8a0 7abd
00000190: db98 07bd 174e 13bd 7dfc 37bd 34cf a5bd
000001a0: 9594 15bd 9fd6 52bd fc89 72bd 6f2d bcbd
000001b0: ee46 b7bd 35d2 50bd 2bbe 14bd 870a 3ebd
000001c0: 6a30 8fbd 3e4a d1bd 46bf c7bd 51f2 73bd
000001d0: 8431 76bd 9a42 4dbd d2d9 7ebd ecdc 713b
000001e0: 5d76 97bd c3be 4abd 46b6 bb3a 5ce5 f8bc
000001f0: 5c13 db3c 8f7c b8bd 3c33 37bd c9bd edbc
00000200: 4087 03bd ee8f 77bd 2d05 12bd 8720 debc
00000210: 9331 2c3d 6a5f 08bd 1933 81bd 607b 61bc
00000220: ebee 69bd a6b6 38bd a272 9fbd 54f6 c6bc
00000230: 19bd b0bc 1abb d5bc 56b0 5cbd cfcd 79bd
00000240: cea0 57bd 064c 95bd 03bd 80bd ce4f 19bd
00000250: 2e16 81bd 3bf2 57bd b06d d0bd be07 00be
00000260: 753d f7bc 497f 96bd bbdb 29bd aa3b cdbb
00000270: 27af 6abd ac48 a93c 8f9f 8abd 27d2 2cbd

main.1.running_mean f4 [160]
-0.0054106656 0.00016630675 -0.026236944 0.0027330392 -0.010986389 -0.03175685 0.008298341 -0.013746339
-0.020962361 -0.01233415 0.006702726 -0.002719124 -0.02101117 -0.0015024847 0.0013339473 0.016991252
0.0056656883 0.0020751162 -0.0030000159 0.0014700342 0.0024523826 0.0022344943 0.0014731311 -0.061192267
0.0041459505 -0.0010056349 -0.0013763151 0.0023713536 -0.044840824 0.012261492 -0.05892712 0.0042824117
0.006719723 0.0019173174 -0.023705231 -0.0023774812 0.019523278 0.00083331706 0.0027976588 4.6844434e-05
0.0036839647 -0.0031039312 0.013407376 -0.0028755772 0.013776045 -0.020628616 -0.014284258 0.008038639
0.009709473 0.00051654165 0.0063955816 0.016890442 -0.023633905 0.00068088004 0.002092024 -0.006480737
0.020554718 -0.012687632 -0.016473578 -0.0067301355 0.0015538657 -0.032438207 0.0053490307 -0.02797049
-0.0025862379 -0.00617613 0.021330677 0.0013115015 -0.034041602 0.00078489643 0.00036341007 -0.020501383
0.004426186 0.0012539076 0.006266315 -0.018481318 0.0009642136 0.0017304561 -0.038059372 0.0023940038
-0.015850183 0.0036806501 -0.0040845433 0.007676883 -0.025468033 0.0072846115 -0.011205639 0.0023175082
0.003848106 0.002112204 -2.3426971e-06 -0.014001212 -0.029651323 -0.058632135 0.0062308046 0.0035841768
-0.048495512 0.0011638377 0.027089728 0.0021418491 0.008694397 -0.026976872 -0.010734754 0.0033748508
-0.011327186 -0.0015389288 -0.00066999084 0.0042780666 0.0050168727 0.015017463 -0.03585116 -0.00027742586
-0.009087071 0.0023394667 0.0013558259 -0.0069019 -0.011400762 0.002712636 -0.0011614164 -0.03188383
-0.018242175 0.008086906 0.005637118 -0.0054040677 0.0015466864 0.0027072178 0.014630165 -0.01631619
-0.022219906 -0.0039502364 -0.02201025 -0.000229711 -0.0013066158 -0.019617114 -0.013406095 0.0007184316
-0.011575795 -0.041220248 0.007486207 0.001366509 -0.014859764 -0.03783256 -0.0005545442 -0.016991569
0.0058042197 -0.017281843 -5.8547575e-05 0.01129571 0.0019968974 0.002552935 0.0015561958 0.009815583
-0.045471594 0.0013997534 -0.00036106203 0.00095914386 0.0044685923 -0.028641686 0.010350537 -0.006434091
00000000: f44b b1bb a162 2e39 dcee d6bc ca1c 333b
00000010: 4100 34bc 7913 02bd c4f5 073c 5338 61bc
00000020: 42b9 abbc 2d15 4abc 8aa2 db3b 5533 32bb
00000030: 9e1f acbc 05ef c4ba d8d7 ae3a 3d31 8b3c
00000040: 3da7 b93b acfe 073b ea9b 44bb 2aae c03a
00000050: 27b8 203b 9870 123b 1416 c13a bea4 7abd
00000060: c1da 873b 82cf 83ba 7965 b4ba b668 1b3b
00000070: 03ab 37bd 6de4 483c 905d 71bd 7953 8c3b
00000080: 1f31 dc3b 7f4e fb3a 7931 c2bc 84cf 1bbb
00000090: 48ef 9f3c f672 5a3a ed58 373b d47a 4438
000000a0: ac6e 713b 536b 4bbb 9caa 5b3c 2e74 3cbb
000000b0: ecb4 613c 58fd a8bc 8508 6abc 7fb4 033c
000000c0: 7b14 1f3c 8668 073a 0792 d13b d35d 8a3c
000000d0: e49b c1bc 167d 323a 571a 093b 5d5c d4bb
000000e0: 5e62 a83c c9df 4fbc 99f3 86bc 7888 dcbb
000000f0: 15ab cb3a eddd 04bd ec46 af3b 5e22 e5bc
00000100: df7d 29bb 2261 cabb acbd ae3c b0e6 ab3a
00000110: 356f 0bbd 82c1 4d3a 1388 be39 84f2 a7bc
00000120: 8a09 913b 285a a43a a955 cd3b 2266 97bc
00000130: 48c3 7c3a 79d0 e23a 25e4 1bbd b8e4 1c3b
00000140: 3ed8 81bc 1037 713b a2d7 85bb 5d8e fb3b
00000150: 56a2 d0bc c0b3 ee3b db97 37bc 56e1 173b
00000160: 8130 7c3b e76c 0a3b 3b37 1db6 5765 65bc
00000170: 55e7 f2bc 4028 70bd c72b cc3b 82e4 6a3b
00000180: 3ba3 46bd ea8b 983a 47eb dd3c 445e 0c3b
00000190: f272 0e3c 9afe dcbc d2e0 2fbc 9a2c 5d3b
000001a0: a995 39bc e2b5 c9ba 53a2 2fba 062f 8c3b
000001b0: 9464 a43b ce0b 763c aad8 12bd 7873 91b9
000001c0: f0e1 14bc bd51 193b f8b5 b13a 5529 e2bb
000001d0: 43ca 3abc 7bc6 313b ab3a 98ba 9e98 02bd
000001e0: 9d70 95bc f17e 043c 93b7 b83b 9b14 b1bb
000001f0: 2fba ca3a 946b 313b 5cb3 6f3c 88a9 85bc
00000200: 8506 b6bc fc70 81bb d74e b4bc 94de 70b9
00000210: c042 abba 12b4 a0bc 3da5 5bbc 2155 3c3a
00000220: 67a8 3dbc 90d6 28bd db4e f53b 6f1c b33a
00000230: 5e76 73bc 50f6 1abd d55e 11ba e731 8bbc
00000240: 5331 be3b a792 8dbc fb90 75b8 a411 393c
00000250: 61de 023b 244f 273b 44f9 cb3a 8ad1 203c
00000260: 6c40 3abd ee77 b73a ed4c bdb9 0e6f 7b3a
00000270: 456d 923b f8a1 eabc 4c95 293c 11d5 d2bb

main.1.running_var f4 [160]
0.0010714411 4.2815936e-05 0.0036440345 9.9340825e-05 0.0049832016 0.0056437887 0.00014539679 0.0026545294
0.0030762667 0.001974805 0.000106089676 0.0018187077 0.0032367185 0.0007038152 5.1144372e-05 0.0001466528
0.0002122312 5.4785913e-05 0.00013245712 8.4107596e-05 4.67154e-05 8.4682004e-05 5.827308e-05 0.01449906
0.0013579917 0.00016871467 0.0019219726 5.3874275e-05 0.009867588 0.0023259143 0.012926954 0.0002026225
9.0282876e-05 0.0003434442 0.0017161822 0.0013717633 0.00076539605 6.150634e-05 0.00016636355 7.491821e-05
0.0001949984 0.0013894984 0.0024129613 0.0007352667 0.0012853595 0.0013061641 0.0014591798 0.0003399543
0.00019175358 5.9622966e-05 0.00029290817 0.0011007636 0.0042545362 5.7719517e-05 1.4677884e-05 0.0019147032
0.001985153 0.0025966447 0.0012999049 0.0001692269 6.1037405e-05 0.006048619 6.806426e-05 0.0022789242
0.00042570758 0.0048351907 0.0020799984 2.1119524e-05 0.0068372684 0.00016881821 5.633867e-05 0.0020378311
0.00015310197 0.00010171143 0.00017362337 0.0048797564 9.618863e-05 7.832453e-05 0.0031532617 0.00039110807
0.0024816042 7.583634e-05 0.0008320888 0.0021258055 0.009707831 0.0022936028 0.0050981017 0.0022239638
0.00013279787 2.0448408e-05 9.9082965e-05 0.00041958116 0.0015576935 0.0125920335 0.00064246805 0.0033357346
0.005520046 6.292135e-05 0.00085771957 0.0006241703 0.0010419947 0.0030153985 0.00029525315 8.905173e-05
0.0021502788 0.00010738718 0.00033917872 5.3077074e-05 0.0015336081 0.00033790094 0.005354395 0.0011634295
0.0011326197 0.00020019486 0.0007081882 0.0010189556 0.0061360006 4.10985e-05 0.0007857326 0.008436675
0.0024527432 0.0025952295 3.8836206e-05 0.0032293033 0.00021779575 2.9280163e-05 0.0012733735 0.0007436713
0.008128783 0.00018911342 0.0068263737 6.5831904e-05 5.663469e-05 0.0045586857 0.0005146521 0.00020821833
0.0009569543 0.008550252 0.00037626442 3.810726e-05 0.000802692 0.004653593 7.2935014e-05 0.0021400673
0.002300522 0.001631447 2.5291318e-05 0.0026941416 0.00015132577 0.00346455 0.00072448136 0.00052451546
0.0068588443 2.559151e-05 5.3851487e-05 0.00014660275 0.0019354034 0.0056152986 0.00046045933 0.0010558537
00000000: 996f 8c3a 4395 3338 c1d0 6e3b 3355 d038
00000010: 204a a33b 88ef b83b a775 1839 9df7 2d3b
00000020: 319b 493b bb6b 013b 767c de38 b461 ee3a
00000030: 201f 543b 3d80 383a da83 5638 d0c6 1939
00000040: 618a 5e39 edc9 6538 30e4 0a39 ec62 b038
00000050: 47f0 4338 4e97 b138 3e6a 7438 778d 6d3c
00000060: a4fe b13a 00e9 3039 b3ea fb3a 10f7 6138
00000070: aaab 213c 5e6e 183b 93cb 533c 1077 5439
00000080: 4056 bd38 4d10 b439 85f1 e03a bdcc b33a
00000090: dca4 483a f7fc 8038 e071 2e39 681d 9d38
000000a0: 7c78 4c39 d41f b63a c622 1e3b eabe 403a
000000b0: 8279 a83a 9833 ab3a f341 bf3a e53b b239
000000c0: 7611 4939 ac13 7a38 7891 9939 7f47 903a
000000d0: a369 8b3b dc17 7238 0841 7637 c7f6 fa3a
000000e0: 5719 023b 782c 2a3b 9261 aa3a 8072 3139
000000f0: 3501 8038 7e33 c63b b9bd 8e38 015a 153b
00000100: 8131 df39 8570 9e3b 9550 083b d529 b137
00000110: 2a0b e03b cb04 3139 304d 6c38 228d 053b
00000120: ff89 2039 e84d d538 ab0e 3639 5de6 9f3b
00000130: e1b8 c938 2942 a438 f4a6 4e3b a30d cd39
00000140: 69a2 223b 530a 9f38 8920 5a3a 1951 0b3b
00000150: 980d 1f3c 4550 163b fa0d a73b ecbf 113b
00000160: a83f 0b39 9f88 ab37 c3ca cf38 3bfb db39
00000170: 852b cc3a d14e 4e3c 4d6b 283a 579c 5a3b
00000180: 81e1 b43b a4f4 8338 96d8 603a 5c9f 233a
00000190: 8a93 883a fe9d 453b 35cc 9a39 49c1 ba38
000001a0: b1eb 0c3b 0e35 e138 ccd3 b139 139f 5e38
000001b0: 5903 c93a 4c28 b139 ec73 af3b 377e 983a
000001c0: 6974 943a 66eb 5139 b5a5 393a 7a8e 853a
000001d0: 8110 c93b 2e61 2c38 9ff9 4d3a fb39 0a3c
000001e0: 34be 203b ba14 2a3b 0fe4 2238 b8a2 533b
000001f0: 1a60 6439 ac9e f537 53e7 a63a f0f2 423a
00000200: 962e 053c bf4c 4639 c6af df3b 3c0f 8a38
00000210: 098b 6d38 0761 953b b8e9 063a 2f55 5a39
00000220: 1edc 7a3a 5b16 0c3c 5b45 c539 5cd5 1f38
00000230: c06b 523a 2b7d 983b b0f4 9838 5f40 0c3b
00000240: 5bc4 163b 47d6 d53a b128 d437 3290 303b
00000250: 34ad 1e39 810d 633b 1feb 3d3a a37f 093a
00000260: 28c0 e03b 59ad d637 98de 6138 60b9 1939
00000270: 5dad fd3a 8a00 b83b ce69 f139 9264 8a3a

main.3.weight f4 [160, 80, 2, 2]
0.03642186 -0.010487254 0.007776432 0.029511718 0.025187043 -0.0048633125 0.029345214 0.03662511
-0.056834444 0.00082109537 0.033500195 0.0042275675 -0.024781778 -0.050119415 -0.021485712 0.004034777
0.043278135 -0.003221242 -0.0037262791 -0.037181873 -0.032635834 0.014453119 -0.0073646586 -0.0034332273
0.018725375 0.020414248 0.02037756 -0.02697998 -0.009212005 -0.0049705934 0.024604628 0.012030212
0.0039084293 -0.039128914 -0.015272716 0.024821639 0.04747895 -0.03248252 0.02056275 -0.026300197
0.02878247 -0.029693073 0.0061249854 -0.04082619 -0.011729218 -0.008221498 0.021393979 0.015181938
0.029246477 -0.03315773 -0.008112434 -0.029846355 -0.022489775 0.04354135 0.018334292 0.011454823
0.019973472 0.028504986 0.033135228 0.026006432 -0.025220906 -0.029244415 -0.047770254 0.021459341
0.01632445 0.010613346 0.018936858 -0.00893035 0.013129908 0.0077721095 0.03558351 0.029346144
0.015475998 -0.0017918559 0.013167689 -0.046921533 0.02519132 -0.015767926 -0.013912461 -0.0030974736
-0.008121145 -0.009186374 -0.013721993 0.0034166786 -0.003020684 -0.042589467 0.0020914471 0.014473861
0.043065574 -2.3930552e-05 0.027400246 -0.0036255769 -0.03155454 -0.039054308 -0.009923185 -0.038303606
-0.027808348 -0.014328139 0.010409982 -0.036123656 0.007829507 -0.040967382 0.0127098365 0.02898222
0.02319712 -0.011408524 0.03306421 -0.03654203 -0.007968389 0.013737299 0.039148472 -0.025866987
-0.00058761804 0.017323332 -0.0018350332 0.0017013983 -0.010435612 0.026253073 0.008915402 0.031558808
-0.01636991 0.022562224 0.004971875 -0.02580132 -0.013726149 -0.011798208 0.012599087 0.010281636
-0.02665324 0.029812152 0.022114614 0.049737226 0.0027474063 -0.001339273 0.008528415 0.038933877
-0.0015178944 0.0137964375 0.034051646 0.01800848 0.027728472 0.007802208 -0.013464045 -0.0044584507
-0.023791337 0.029374355 0.03612323 0.010871259 0.01432424 0.013573737 -0.016730823 6.5033666e-05
-0.015241867 -0.031125758 -0.014969809 -0.03416553 -0.06333875 0.0069277734 0.0075084325 -0.00074953656
0.0016343637 -0.0032802105 0.014386743 0.004681075 -0.029853512 0.006686934 -0.043485142 0.02363601
0.011570766 0.00896373 0.012557652 -0.005716032 -0.007408919 0.049509566 0.01710598 -0.0106524555
0.012065522 0.030572569 0.029491048 -0.00015390468 -0.03784311 0.008171764 0.01791166 0.01339316
-0.0023909963 0.009349292 0.0013237695 0.038340293 -0.003916121 0.05094352 -0.0041565904 -0.009917323
0.0039106864 0.014565562 0.025378255 -0.004522191 -0.0040119872 0.017755019 0.019131077 0.0038925144
-0.016606934 0.033644225 -0.028059745 -0.0047122445 0.017849429 -0.007715876 0.021266086 -0.013824853
0.011438102 -0.00890649 0.0018861961 0.041777413 0.011304102 0.026674436 0.0259465 0.01416357
0.025256941 0.031169875 0.005029695 0.01733689 0.014354736 -8.550602e-05 0.05012649 -0.003202197
-0.008985173 0.017456535 2.1382406e-05 0.009673459 0.04681458 0.008016991 -0.022206139 -0.046451036
0.005849007 0.0026526102 -0.008055217 0.0062272632 -0.010048948 3.9029914e-05 -0.011725395 -0.008895935
0.026153771 0.011361404 0.04640456 -0.029333347 0.023542829 0.026741527 -0.020661285 0.015588258
0.00852282 -8.126919e-05 0.013588078 0.0025510588 -0.021149239 -0.0035975769 0.01715919 -0.0342852
00000000: 172f 153d bbd2 2bbc 71d1 fe3b 8fc2 f13c
00000010: 0f55 ce3c 6c5c 9fbb 6065 f03c 3604 163d
00000020: 3ccb 68bd c73e 573a 8037 093d 6887 8a3b
00000030: 2803 cbbc 044a 4dbd ce02 b0bc 2a36 843b
00000040: 6a44 313d 791b 53bb 9734 74bb 054c 18bd
00000050: 27ad 05bd c6cc 6c3c 3c53 f1bb ffff 60bb
00000060: f565 993c c83b a73c d7ee a63c 1e05 ddbc
00000070: f3ed 16bc 5ce0 a2bb a58f c93c 5e1a 453c
00000080: 4812 803b a445 20bd 6a3a 7abc c056 cb3c
00000090: 4a79 423d 640c 05bd 3673 a83c 8373 d7bc
000000a0: 37c9 eb3c e33e f3bc 1ab4 c83b 5d39 27bd
000000b0: e82b 40bc 76b3 06bc 6d42 af3c aabd 783c
000000c0: 4f96 ef3c 66d0 07bd 04ea 04bc 5880 f4bc
000000d0: 7a3c b8bc 6a58 323d cc31 963c 03ad 3b3c
000000e0: 689f a33c 4a83 e93c ceb8 073d 710b d53c
000000f0: 139c cebc fc91 efbc beaa 43bd 80cb af3c
00000100: daba 853c 99e3 2d3c 7821 9b3c 9a50 12bc
00000110: d31e 573c 2ead fe3b 04c0 113d 5367 f03c
00000120: 0a8f 7d3c b5dc eaba 4abd 573c cb30 40bd
00000130: 075e ce3c bd2b 81bc 17f1 63bc fcfe 4abb
00000140: 8d0e 05bc 7282 16bc 36d2 60bc 5bea 5f3b
00000150: abf6 45bb 4b72 2ebd a910 093b c623 6d3c
00000160: 8765 303d 78be c8b7 7b76 e03c 169b 6dbb
00000170: 553f 01bd 69f7 1fbd db94 22bc 3ee4 1cbd
00000180: 55ce e3bc 92c0 6abc a18e 2a3c 66f6 13bd
00000190: 5547 003c 6acd 27bd eb3c 503c 1f6c ed3c
000001a0: e307 be3c d1ea 3abc 566e 073d 18ad 15bd
000001b0: d98d 02bc 6812 613c 265a 203d 01e7 d3bc
000001c0: 610a 1aba a9e9 8d3c 7f85 f0ba 7401 df3a
000001d0: 21fa 2abc af10 d73c e811 123c cf43 013d
000001e0: 311a 86bc 6ad4 b83c 1ceb a23b 4a5d d3bc
000001f0: a4e3 60bc 454d 41bc 676c 4e3c 4f74 283c
00000200: e557 dabc 9d38 f43c b529 b53c 43b9 4b3d
00000210: d40d 343b 8b8a afba c4ba 0b3c 2179 1f3d
00000220: 16f4 c6ba 740a 623c bd79 0b3d 8586 933c
00000230: d226 e33c aaa9 ff3b 4c98 5cbc 3218 92bb
00000240: 0de6 c2bc 7da2 f03c f4f5 133d 5d1d 323c
00000250: 38b0 6a3c 6164 5e3c 140f 89bc af62 8838
00000260: 06b9 79bc 72fb febc ee43 75bc 28f1 0bbd
00000270: bfb7 81bd 6002 e33b 4c09 f63b 8c7c 44ba
00000280: 2538 d63a cdf8 56bb 60b6 6b3c b463 993b
00000290: 5a8f f4bc 111e db3b 7a1d 32bd 4ea0 c13c
000002a0: 4f93 3d3c 9cdc 123c 9cbe 4d3c 8d4d bbbb
000002b0: 84c6 f2bb 8bca 4a3d d721 8c3c a387 2ebc
000002c0: 78ae 453c 5373 fa3c 3697 f13c 7961 21b9
000002d0: 6001 1bbd dde2 053c 79bb 923c fc6e 5b3c
000002e0: 43b2 1cbb c62d 193c 5582 ad3a b60a 1d3d
000002f0: ce52 80bb 27aa 503d 0234 88bb 447c 22bc
00000300: 3725 803b 65a4 6e3c 0fe6 cf3c e32e 94bb
00000310: fd76 83bb f972 913c c7b8 9c3c 8e19 7f3b
00000320: 440b 88bc 87ce 093d 8ddd e5bc 2c69 9abb
00000330: f738 923c 76d5 fcbb 3736 ae3c a381 62bc
00000340: e166 3b3c 87ec 11bc 3d3a f73a cb1e 2b3d
00000350: d734 393c 5984 da3c c18d d43c 510e 683c
00000360: a5e7 ce3c f757 ff3c 24d0 a43b 1806 8e3c
00000370: 2030 6b3c b251 b3b8 6f51 4d3d f3db 51bb
00000380: 8c36 13bc 0201 8f3c 5e5e b337 6e7d 1e3c
00000390: a5c0 3f3d b359 033c a6e9 b5bc 7143 3ebd
000003a0: 07a9 bf3b 6ad7 2d3b 07fa 03bc 120e cc3b
000003b0: 58a4 24bc 0db4 2338 df1b 40bc 41c0 11bc
000003c0: 6f40 d63c 2f25 3a3c b512 3e3d 7d4c f0bc
000003d0: e4dc c03c 0c11 db3c db41 a9bc e565 7f3c
000003e0: 4ca3 0b3c 106f aab8 88a0 5e3c aa2f 273b
000003f0: 2b41 adbc 53c5 6bbb 6e91 8c3c a36e 0cbd

main.4.weight f4 [80]
1.1118665 1.3161484 0.98792964 1.0546154 1.0862741 0.9825938 1.0987935 1.1150409
0.95948017 1.0818264 1.042989 1.0731862 1.0845962 1.2906141 1.1324055 1.0064932
0.9939873 1.0534352 1.0143907 0.9981681 1.2333282 0.97342354 1.214108 1.0490756
1.0889506 1.0991824 0.98740435 1.0504559 1.0410131 1.0084889 1.0596186 1.0328224
1.0687732 1.0293518 0.9728017 1.0682957 1.0331 1.0060856 1.0926316 1.04712
1.0321611 0.9723362 1.0163777 1.2374895 1.0783744 1.0975404 1.0938127 1.0672807
1.0830948 1.2070609 1.3064082 1.1778792 1.0292481 1.0793787 1.0222304 1.0551131
1.0523599 1.0306516 1.0339649 1.0280054 1.1706645 1.036826 1.0443785 1.069067
1.2562194 1.0470346 1.071446 0.9863027 1.0533733 1.1235532 1.1888572 1.0588312
1.2334595 1.0425804 1.2330043 1.0212673 1.2491094 1.1047893 1.0116754 1.069075
00000000: a451 8e3f 8d77 a83f f5e8 7c3f a3fd 863f
00000010: 080b 8b3f 448b 7b3f 44a5 8c3f a9b9 8e3f
00000020: 7ea0 753f 4a79 8a3f aa80 853f 2a5e 893f
00000030: 0cd4 8a3f d832 a53f aaf2 903f c5d4 803f
00000040: f475 7e3f f7d6 863f 8ed7 813f f287 7f3f
00000050: b3dd 9d3f 4932 793f e467 9b3f 1c48 863f
00000060: bc62 8b3f 02b2 8c3f 88c6 7c3f 5775 863f
00000070: eb3f 853f 2a16 813f 95a1 873f 8633 843f
00000080: 8fcd 883f cdc1 833f 8809 793f eabd 883f
00000090: 9f3c 843f 6ac7 803f 5adb 8b3f 0708 863f
000000a0: db1d 843f 06eb 783f aa18 823f 0e66 9e3f
000000b0: 2c08 8a3f 347c 8c3f 0e02 8c3f a79c 883f
000000c0: daa2 8a3f f980 9a3f 6238 a73f bfc4 963f
000000d0: 67be 833f 1529 8a3f 72d8 823f f20d 873f
000000e0: bbb3 863f 64ec 833f f658 843f ae95 833f
000000f0: 56d8 953f b7b6 843f 32ae 853f 30d7 883f
00000100: cccb a03f 3b05 863f 2425 893f 557e 7c3f
00000110: f0d4 863f 97d0 8f3f 792c 983f c887 873f
00000120: 00e2 9d3f 4673 853f 16d3 9d3f e3b8 823f
00000130: d1e2 9f3f bc69 8d3f 947e 813f 73d7 883f

main.4.bias f4 [80]
-0.09032935 -0.5197704 -0.035706677 -0.1295852 -0.13615717 0.0049528577 0.12170789 -0.067839265
-0.0028447546 -0.08402644 -0.08816264 -0.1881246 -0.08956814 -0.2787146 -0.079280876 -0.04829014
-0.02765643 -0.17035682 -0.059436206 -0.038500734 -0.44317567 -0.0246968 -0.16449155 -0.11416359
-0.12001301 -0.13691382 -0.050213538 -0.11946465 -0.016473958 -0.022290448 -0.061676424 -0.0716701
-0.15226094 -0.018290637 -0.021187237 -0.06687744 -0.13154227 -0.059970696 -0.117052466 0.017054625
-0.03259697 -0.046728835 -0.04532381 -0.4220432 -0.11010556 -0.0919015 0.032726906 -0.094312824
-0.15394692 -0.18564337 -0.47250533 -0.3750266 -0.0025458173 0.07264385 0.057715856 0.06243162
-0.17565468 -0.0032808073 -0.04217303 0.0034947908 -0.19124131 -0.13149883 -0.13095914 -0.1192488
-0.22070542 -0.06730685 -0.04108474 -0.02744387 -0.026976993 -0.081338234 -0.1291496 0.16115512
-0.23760727 -0.07826817 -0.17911454 -0.07719933 -0.15538685 -0.2636541 -0.028622398 -0.10704359
00000000: 98fe b8bd ac0f 05bf 2a41 12bd fcb1 04be
00000010: c96c 0bbe 954b a23b fc41 f93d 50ef 8abd
00000020: 106f 3abb 0e16 acbd 9d8e b4bd bca3 40be
00000030: 806f b7bd aeb3 8ebe 035e a2bd e2cb 45bd
00000040: bd8f e2bc 0572 2ebe 6173 73bd f2b2 1dbd
00000050: ece7 e2be f250 cabc 7970 28be 9ace e9bd
00000060: 62c9 f5bd 2333 0cbe b6ac 4dbd e2a9 f4bd
00000070: 65f4 86bc 759a b6bc 6ba0 7cbd c6c7 92bd
00000080: 4bea 1bbe 3fd6 95bc db90 adbc 0af7 88bd
00000090: 04b3 06be d5a3 75bd 34b9 efbd 24b6 8b3c
000000a0: 6784 05bd bc66 3fbd 76a5 39bd 0c16 d8be
000000b0: 067f e1bd db36 bcbd a60c 063d 1527 c1bd
000000c0: 43a4 1dbe 4c19 3ebe 38ec f1be 7d03 c0be
000000d0: bad7 26bb 4dc6 943d 7667 6c3d 4cb8 7f3d
000000e0: d2de 33be d002 57bb a1bd 2cbd dc08 653b
000000f0: c3d4 43be a1a7 06be 271a 06be b738 f4bd
00000100: 9a00 62be 2cd8 89bd 7948 28bd f8d1 e0bc
00000110: dbfe dcbc a994 a6bd cb3f 04be d905 253e
00000120: 524f 73be 104b a0bd cd69 37be af1a 9ebd
00000130: bb1d 1fbe acfd 86be 8579 eabc ab39 dbbd

main.4.running_mean f4 [80]
-0.16522844 -0.06687819 0.34431264 0.079891555 -0.08712731 -0.8707614 0.11629915 0.1001003
-0.0051096333 -0.05090077 -0.5679646 -0.10998499 0.02682502 -0.11061248 -0.11053575 -0.5682796
-0.20308396 -0.34297606 -0.06411921 -0.46006188 -0.07496925 -0.15070559 0.07007907 -0.13871117
-0.8914107 -0.28406197 -0.5965669 -0.099125035 0.26249826 0.38379765 0.13867356 -0.19156575
-0.36950645 -0.50776553 0.05295041 -0.017156933 0.45438802 0.96974546 -0.24321267 0.074028544
0.14568086 0.26261452 0.015675334 -0.025238622 0.06459061 -0.08846732 -0.31910563 0.20912904
-0.05001649 0.035969734 -0.06481193 -0.07575582 -0.48963422 -0.063964136 -0.44087037 -0.0068020285
-0.1650885 0.2898635 0.12790033 0.34844816 -0.25027433 -0.16371228 -0.34022987 -0.02365953
-0.10829056 0.05267571 -0.054122027 -0.0134965805 -0.08041097 0.001783953 -0.17257328 0.28282133
0.06853256 -0.25908783 0.039821725 -0.25996852 0.036887977 -0.11500256 -0.045883168 -0.63908154
00000000: a531 29be 6ff7 88bd bf49 b03e 2f9e a33d
00000010: ce6f b2bd 38ea 5ebf 402e ee3d 6301 cd3d
00000020: b66e a7bb 537d 50bd 2166 11bf cf3f e1bd
00000030: 25c0 db3c cc88 e2bd 9160 e2bd c67a 11bf
00000040: 3ef5 4fbe 8f9a afbe ef50 83bd 3b8d ebbe
00000050: 7a89 99bd 9152 1abe 9e85 8f3d 4d0a 0ebe
00000060: 7e33 64bf 9270 91be 9cb8 18bf 1102 cbbd
00000070: 2c66 863e 2081 c43e 7100 0e3e d029 44be
00000080: f32f bdbe ecfc 01bf 87e2 583d b28c 8cbc
00000090: 8ca5 e83e 3d41 783f be0c 79be 479c 973d
000000a0: 5d2d 153e 6975 863e 8f69 803c 3ac1 cebc
000000b0: 1548 843d 5b2e b5bd d061 a3be ec25 563e
000000c0: 17de 4cbd 0055 133d 1ebc 84bd de25 9bbd
000000d0: 56b1 fabe a1ff 82bd c3b9 e1be 8de3 debb
000000e0: f60c 29be fd68 943e 4ef8 023e cc67 b23e
000000f0: f523 80be 31a4 27be 9c32 aebe a1d1 c1bc
00000100: 71c7 ddbd 7cc2 573d 0faf 5dbd c320 5dbc
00000110: 82ae a4bd 88d3 e93a 0db7 30be f5cd 903e
00000120: cc5a 8c3d 29a7 84be 1b1c 233d 981a 85be
00000130: d917 173d 7686 ebbd fdef 3bbd d99a 23bf

main.4.running_var f4 [80]
0.03267682 0.0775882 0.123798825 0.077888265 0.018376201 0.9142541 0.07010774 0.026394982
0.12123507 0.08592301 0.107531466 0.037930753 0.096024275 0.027482802 0.026546862 0.16456726
0.033516336 0.024373502 0.13010836 0.10011531 0.0027942325 0.23426008 0.025971653 0.058124237
0.10271698 0.031192198 0.13471591 0.13394438 0.2354714 0.4039906 0.21545261 0.08628344
0.045378607 0.38747442 0.09502567 0.015687943 0.07775945 0.23460066 0.038627256 0.08574544
0.120478146 0.07269269 0.2677889 0.016411137 0.1171168 0.10132877 0.081415534 0.065527685
0.044003088 0.027912373 0.008334961 0.009585258 0.1721619 0.03905036 1.328091 0.7652453
0.053053644 0.25004584 0.0496206 0.15396886 0.029345322 0.08047817 0.043145206 0.04355298
0.014588832 0.12877841 0.026792848 0.2959691 0.09001019 0.04416234 0.052064233 0.3557694
0.036200665 0.030645108 0.016042758 0.064760305 0.028004218 0.05258517 0.16660082 0.09976603
00000000: 21d8 053d 90e6 9e3d 3d8a fd3d e283 9f3d
00000010: b089 963c 8f0c 6a3f a694 8f3d 4a3a d83c
00000020: 184a f83d 67f8 af3d 7539 dc3d 475d 1b3d
00000030: 60a8 c43d 9d23 e13c ce78 d93c 5284 283e
00000040: 6d48 093d f0aa c73c 203b 053e 4109 cd3d
00000050: 711f 373b e0e1 6f3e 81c2 d43c ae13 6e3d
00000060: 485d d23d c886 ff3c f8f2 093e b728 093e
00000070: 6a1f 713e dbd7 ce3e 9c9f 5c3e 5fb5 b03d
00000080: ebde 393d 0c63 c63e d29c c23d 0084 803c
00000090: 5940 9f3d 283b 703e 9d37 1e3d 4e9b af3d
000000a0: 3fbd f63d e8df 943d a01b 893e a670 863c
000000b0: efda ef3d 7585 cf3d 30bd a63d 6133 863d
000000c0: 953c 343d 7da8 e43c 5c8f 083c 7c0b 1d3c
000000d0: 364b 303e 45f3 1f3d e3fe a93f 1ee7 433f
000000e0: c74e 593d 0206 803e f83e 4b3d 03aa 1d3e
000000f0: 9a65 f03c bdd1 a43d 07b9 303d 9c64 323d
00000100: ff05 6f3c 7dde 033e ad7c db3c 4389 973e
00000110: 4357 b83d 92e3 343d 4e41 553d 6827 b63e
00000120: 2647 143d 730b fb3c 1a6c 833c 0da1 843d
00000130: 1a69 e53c 8c63 573d 6899 2a3e 2252 cc3d

main.6.weight f4 [80, 1, 3, 3]
-0.00723533 -0.009395683 -0.08213687 0.039553743 0.062334742 -0.059341013 0.024053948 -0.029577615
-0.15718207 0.2549689 0.39225614 0.21867482 0.13091388 0.08519989 0.050810825 0.099737525
0.023245659 -0.01955778 -0.04881652 -0.02293178 -0.021232307 0.0060234056 0.039493743 0.008691831
0.016323607 -0.03846433 -0.011316621 -0.034111906 0.005115301 0.04530165 -0.031372283 0.02615266
0.029866202 0.06267501 0.08698934 0.04099047 -0.11772785 -0.038109194 0.024019917 -0.12225891
-0.012895906 0.011123232 -0.08116422 -0.05829503 -0.021823084 -0.03986498 -0.031354614 0.019940436
-0.025733808 -0.056043435 0.018183077 -0.03390843 -0.026801955 0.010006602 0.019102186 -0.051808693
-0.019596621 -0.03993033 -0.068950206 -0.08608241 -0.039602913 -0.06975478 -0.042201623 0.0031761217
0.017583642 -0.01803978 -0.0979065 -0.023997923 -0.031515934 -0.11312524 -0.0059703887 -0.003417994
-0.06014591 0.0347305 0.021228783 -0.025336536 0.004709408 -0.00027879447 -0.017832818 -0.008410132
-0.011064778 0.0066697192 0.05843979 0.021290122 -0.031499628 -0.024505075 -0.037177872 -0.04210001
-0.06503896 -0.005460256 0.0044262125 -0.008899019 -0.0077741346 0.063785695 -0.06660653 -0.0187594
-0.030627156 -0.0073101926 0.01822243 0.0063476115 -0.109497115 -0.06731973 0.005728256 -0.04584764
-0.04927454 0.0037973586 0.044895824 -0.032074973 -0.023183098 0.078606196 0.008224278 0.027712423
0.0023163524 -0.03751433 0.0081807915 0.058647774 0.021662626 -0.035461094 -0.10112658 0.14110461
-0.063790485 -0.1441004 0.19597593 -0.10885558 -0.1549492 -0.038031187 -0.021472434 -0.011842339
0.01737209 -0.027791016 -0.1192592 -0.053367898 0.010643703 -0.06972497 -0.050863348 -0.012500343
0.04338004 -0.013266472 0.03519133 -0.02771688 -0.04610342 -0.0143044405 -0.0057116775 -0.013662225
-0.023379626 0.04467404 0.0028266476 -0.03852222 0.06446902 -0.041432973 -0.004426767 -0.021238117
-0.014393939 -0.057585422 -0.055221617 -0.03017186 -0.022735659 0.03595353 0.008619658 0.08054889
0.07797223 0.006336024 -0.02720641 0.04415906 0.023070458 0.01080347 0.0066991393 0.041655995
-0.046285853 -0.0030487105 -0.007409814 0.024591833 0.006388705 0.006359683 0.010040399 -0.03466221
-0.015065183 0.014555864 -0.04026577 0.023748474 0.064626776 0.18248254 0.08995393 0.09242995
0.16094595 0.07286746 0.04117389 0.08872859 0.03270312 0.007846682 -0.0040280055 0.037422758
-0.041624743 0.0033749745 -0.024345279 -0.027232554 -0.022594899 0.015395832 -0.042053517 -0.08120127
-0.0374594 -0.12962054 -0.12436358 -0.066396736 0.05251809 0.06652158 0.055860024 0.009867624
-0.006887648 0.0401265 0.09092008 0.04355412 0.061617345 0.015871454 -0.0010471666 0.038548786
0.008212168 0.027426085 -0.033083227 0.0662387 -0.0026266733 -0.050382826 -0.014497791 -0.04215452
0.05359333 0.019725977 0.039455395 -0.02260909 -0.025696015 -0.038157854 -0.014863364 0.015330663
0.10812201 0.050295766 0.0045145582 0.0023751562 0.011807047 -0.00462893 -0.027276767 0.017507056
-0.020900762 -0.010846105 0.042032123 0.04344674 -0.05999091 -0.008741236 0.020324074 -0.112693384
-0.0184795 0.0056201494 -0.011379119 -0.0022439766 -0.040467285 0.02553347 -0.013378685 -0.044088174
00000000: 5916 edbb 5af0 19bc 6037 a8bd 1b03 223d
00000010: b752 7f3d 900f 73bd c90c c53c c14c f2bc
00000020: 56f4 20be 498b 823e ccd5 c83e 4bec 5f3e
00000030: 4a0e 063e 487d ae3d 031f 503d 3043 cc3d
00000040: ae6d be3c a337 a0bc d5f3 47bd 6edb bbbc
00000050: 60ef adbc fd5f c53b 31c4 213d 2e68 0e3c
00000060: 16b9 853c c68c 1dbd 5969 39bc edb8 0bbd
00000070: 419e a73b 398e 393d 3980 00bd 1a3e d63c
00000080: f7a9 f43c c15b 803d 7827 b23d a0e5 273d
00000090: 4d1b f1bd 6318 1cbd 6bc5 c43c e162 fabd
000000a0: 5a49 53bc 373e 363c 6d39 a6bd c5c6 6ebd
000000b0: 53c6 b2bc 7649 23bd b26d 00bd 205a a33c
000000c0: b5cf d2bc cd8d 65bd adf4 943c 91e3 0abd
000000d0: c68f dbbc bbf2 233c 307c 9c3c 5a35 54bd
000000e0: 1889 a0bc fc8d 23bd c435 8dbd f94b b0bd
000000f0: aa36 22bd 98db 8ebd 9cdb 2cbd 7b26 503b
00000100: 920b 903c 29c8 93bc 3483 c8bd 4b97 c4bc
00000110: da16 01bd 35ae e7bd 40a3 c3bb 6c00 60bb
00000120: 8f5b 76bd 9241 0e3d fce7 ad3c 918e cfbc
00000130: 6151 9a3b 292b 92b9 2116 92bc a6ca 09bc
00000140: 0b49 35bc a98d da3b 905e 6f3d 9f68 ae3c
00000150: c105 01bd debe c8bc d347 18bd 0f71 2cbd
00000160: 2533 85bd f2eb b2bb c309 913b 31cd 11bc
00000170: 2bbe febb 13a2 823d 0169 88bd 50ad 99bc
00000180: cde5 fabc 578a efbb 3547 953c a0ff cf3b
00000190: 0640 e0bd edde 89bd 18b4 bb3b bcca 3bbd
000001a0: 1ad4 49bd 1bdd 783b afe4 373d 0c61 03bd
000001b0: 7bea bdbc 49fc a03d 1fbf 063c 2a05 e33c
000001c0: f2cd 173b a0a8 19bd ba08 063c a638 703d
000001d0: d275 b13c a73f 11bd 741b cfbd ba7d 103e
000001e0: 96a4 82bd 0e8f 13be eaad 483e adef debd
000001f0: 01ab 1ebe 97c6 1bbd f5e6 afbc 5f06 42bc
00000200: ea4f 8e3c fca9 e3bc 2b3e f4bd 4c98 5abd
00000210: ed62 2e3c f7cb 8ebd 1656 50bd 3dce 4cbc
00000220: 45af 313d 9e5b 59bc c924 103d 830e e3bc
00000230: f1d6 3cbd 2c5d 6abc 0629 bbbb 86d7 5fbc
00000240: a186 bfbc 20fc 363d 473f 393b 7ac9 1dbd
00000250: 5508 843d 9fb5 29bd 6a0e 91bb 8ffb adbc
00000260: 8ed4 6bbc b1de 6bbd 1030 62bd fa2a f7bc
00000270: 2240 babc 0244 133d 7739 0d3c d1f6 a43d
00000280: e8af 9f3d 6c9e cf3b fadf debc 21e0 343d
00000290: 42fe bc3c 0a01 313c 7484 db3b 7a9f 2a3d
000002a0: 3c96 3dbd e0cc 47bb 06ce f2bb d074 c93c
000002b0: 5858 d13b e364 d03b 7c80 243c f6f9 0dbd
000002c0: f5d3 76bc b87b 6e3c b8ed 24bd 298c c23c
000002d0: 0b5b 843d b4dc 3a3e c439 b83d ea4b bd3d
000002e0: 04cf 243e 893b 953d f4a5 283d 56b7 b53d
000002f0: b5f3 053d 5f8f 003c 5cfd 83bb 9b48 193d
00000300: b57e 2abd ad2e 5d3b c06f c7bc ce16 dfbc
00000310: f018 b9bc cd3e 7c3c 4f40 2cbd da4c a6bd
00000320: 076f 19bd 3fbb 04be 55b2 febd 03fb 87bd
00000330: 351d 573d 773c 883d 7bcd 643d d1ab 213c
00000340: c7b1 e1bb af5b 243d 4f34 ba3d ce65 323d
00000350: 7862 7c3d da04 823c 1541 89ba 55e5 1d3d
00000360: 548c 063c abac e03c 4782 07bd 28a8 873d
00000370: 4424 2cbb 395e 4ebd 2588 6dbc 38aa 2cbd
00000380: ae84 5b3d 5f98 a13c fb9b 213d b336 b9bc
00000390: 7380 d2bc 694b 1cbd 7885 73bc 762d 7b3c
000003a0: 136f dd3d ef02 4e3d dcee 933b 82a8 1b3b
000003b0: 5872 413c 47ae 97bb 8773 dfbc f56a 8f3c
000003c0: 1338 abbc ddb3 31bc e029 2c3d 35f5 313d
000003d0: 07b9 75bd 6737 0fbc ac7e a63c cacb e6bd
000003e0: 5262 97bc 3b29 b83b 7c6f 3abc ae0f 13bb
000003f0: 06c1 25bd 912b d13c 4632 5bbc cd95 34bd
